ML/signlang/dataset_frame/11_b_3455.npy (npy, 84504 bytes, 1 tensors)

array f8 [53, 199]
0.2174644023180008 0.8553106188774109 3.3723171100064064e-07 0.0 0.2614743709564209 0.812092661857605 -0.021343804895877838 0.0
0.2853359282016754 0.7479416131973267 -0.030308524146676064 0.0 0.2930927872657776 0.6903551816940308 -0.037976205348968506 0.0
0.3033849895000458 0.6423233151435852 -0.04561372846364975 0.0 0.24845807254314423 0.6701914668083191 -0.015948638319969177 0.0
0.2558487355709076 0.5991283655166626 -0.031847596168518066 0.0 0.25885772705078125 0.556106448173523 -0.04525719955563545 0.0
0.26018211245536804 0.5173548460006714 -0.055003441870212555 0.0 0.219248965382576 0.6696581840515137 -0.017407696694135666 0.0
0.22316408157348633 0.5933160185813904 -0.030889522284269333 0.0 0.22590291500091553 0.5450292825698853 -0.043247487396001816 0.0
0.22744539380073547 0.5022501945495605 -0.052467070519924164 0.0 0.19203411042690277 0.6850321292877197 -0.022133177146315575 0.0
0.18882983922958374 0.613335907459259 -0.03717426955699921 0.0 0.1897915154695511 0.5663478970527649 -0.04838193580508232 0.0
0.19116516411304474 0.5235304832458496 -0.05606020987033844 0.0 0.1647184193134308 0.7140520811080933 -0.028851447626948357 0.0
0.15162262320518494 0.6607643365859985 -0.04463738203048706 0.0 0.14349593222141266 0.6233811974525452 -0.052634675055742264 0.0
0.13631504774093628 0.5866513848304749 -0.05754642188549042 0.0 27.015525817871094 12.622659683227539 4.572513103485107 8.457501411437988
5.083364963531494 3.7244434356689453 5.2120361328125 4.341895580291748 2.463719129562378 7.387763023376465 3.967592477798462 3.315988063812256
8.32155704498291 4.4983720779418945 4.489782810211182 0.5967598557472229 0.8400477766990662 1.0608742684325989e-07 0.0 0.5513702034950256
0.8095576167106628 -0.013175280764698982 0.0 0.5229200124740601 0.7547157406806946 -0.017878063023090363 0.0 0.5125122666358948
0.7070974111557007 -0.022391095757484436 0.0 0.5031619071960449 0.6656232476234436 -0.02634425461292267 0.0 0.5540760159492493
0.6668359637260437 0.0003625357348937541 0.0 0.5463905930519104 0.6043123602867126 -0.007593339309096336 0.0 0.5430967807769775
0.5669786930084229 -0.018441256135702133 0.0 0.5381653904914856 0.5317009091377258 -0.02814057655632496 0.0 0.5799986124038696
0.6636934280395508 -0.003940435126423836 0.0 0.5754185914993286 0.5995633006095886 -0.012287255376577377 0.0 0.5653085112571716
0.5624184012413025 -0.023973846808075905 0.0 0.55177903175354 0.5328682065010071 -0.03294660151004791 0.0 0.6034932732582092
0.6754758954048157 -0.01117411907762289 0.0 0.6073574423789978 0.6116911172866821 -0.02081298828125 0.0 0.6035326719284058
0.5696616172790527 -0.03042350895702839 0.0 0.5970498919487 0.5338928699493408 -0.038023561239242554 0.0 0.6251071691513062
0.6994388699531555 -0.020183293148875237 0.0 0.6325093507766724 0.6519337892532349 -0.030323127284646034 0.0 0.6354823708534241
0.6183127164840698 -0.036136824637651443 0.0 0.637588620185852 0.5863522291183472 -0.040613070130348206 0.0 29.75684356689453
15.065093040466309 0.3749679923057556 9.999285697937012 9.148947715759277 2.9510865211486816 6.2675628662109375 14.4348726272583 9.119657516479492
4.827641010284424 9.51558780670166 5.060031414031982 4.633795738220215 4.30277156829834 2.215749740600586 11.0 0.21524249017238617
0.8584940433502197 3.123862200027361e-07 0.0 0.2610431909561157 0.814632773399353 -0.020362071692943573 0.0 0.28753453493118286
0.7482123970985413 -0.027243712916970253 0.0 0.2945396900177002 0.6913149356842041 -0.03282300382852554 0.0 0.3039538562297821
0.6443449854850769 -0.038215722888708115 0.0 0.2486538589000702 0.6697680950164795 -0.012738092802464962 0.0 0.256436288356781
0.6000857949256897 -0.026427671313285828 0.0 0.2590163052082062 0.5572034120559692 -0.03857306391000748 0.0 0.26001468300819397
0.5185503959655762 -0.04762222617864609 0.0 0.2202635556459427 0.6692072153091431 -0.013684837147593498 0.0 0.2244342714548111
0.5939265489578247 -0.024905817583203316 0.0 0.2264021337032318 0.5455511808395386 -0.03625363111495972 0.0 0.22706496715545654
0.5031024217605591 -0.04504341259598732 0.0 0.1933666467666626 0.6841314435005188 -0.01786291040480137 0.0 0.19009535014629364
00000000: 0000 00a0 dfd5 cb3f 0000 0060 b45e eb3f
00000010: 0000 00c0 98a1 963e 0000 0000 0000 0000
00000020: 0000 0000 ffbb d03f 0000 00c0 a9fc e93f
00000030: 0000 0080 26db 95bf 0000 0000 0000 0000
00000040: 0000 00a0 f142 d23f 0000 0040 23ef e73f
00000050: 0000 00a0 3209 9fbf 0000 0000 0000 0000
00000060: 0000 0040 08c2 d23f 0000 00c0 6317 e63f
00000070: 0000 0000 9e71 a3bf 0000 0000 0000 0000
00000080: 0000 00e0 a86a d33f 0000 00a0 e98d e43f
00000090: 0000 00c0 ae5a a7bf 0000 0000 0000 0000
000000a0: 0000 0060 79cd cf3f 0000 0060 3572 e53f
000000b0: 0000 0000 d754 90bf 0000 0000 0000 0000
000000c0: 0000 0060 d35f d03f 0000 0040 0f2c e33f
000000d0: 0000 0000 544e a0bf 0000 0000 0000 0000
000000e0: 0000 0000 2091 d03f 0000 00c0 9fcb e13f
000000f0: 0000 00a0 f32b a7bf 0000 0000 0000 0000
00000100: 0000 00e0 d2a6 d03f 0000 00c0 2b8e e03f
00000110: 0000 0040 6929 acbf 0000 0000 0000 0000
00000120: 0000 00a0 5910 cc3f 0000 0000 d76d e53f
00000130: 0000 00c0 52d3 91bf 0000 0000 0000 0000
00000140: 0000 0000 a490 cc3f 0000 00e0 71fc e23f
00000150: 0000 00c0 80a1 9fbf 0000 0000 0000 0000
00000160: 0000 0000 63ea cc3f 0000 0040 e170 e13f
00000170: 0000 00e0 8824 a6bf 0000 0000 0000 0000
00000180: 0000 0040 ee1c cd3f 0000 0000 6f12 e03f
00000190: 0000 00c0 f6dc aabf 0000 0000 0000 0000
000001a0: 0000 00e0 9294 c83f 0000 0080 c8eb e53f
000001b0: 0000 0060 14aa 96bf 0000 0000 0000 0000
000001c0: 0000 0080 932b c83f 0000 00a0 72a0 e33f
000001d0: 0000 0080 8108 a3bf 0000 0000 0000 0000
000001e0: 0000 00a0 164b c83f 0000 00a0 851f e23f
000001f0: 0000 0060 84c5 a8bf 0000 0000 0000 0000
00000200: 0000 00a0 1978 c83f 0000 0000 c3c0 e03f
00000210: 0000 0080 ecb3 acbf 0000 0000 0000 0000
00000220: 0000 0040 7e15 c53f 0000 00c0 83d9 e63f
00000230: 0000 00e0 3b8b 9dbf 0000 0000 0000 0000
00000240: 0000 00c0 5e68 c33f 0000 0040 fb24 e53f
00000250: 0000 0000 b6da a6bf 0000 0000 0000 0000
00000260: 0000 0020 135e c23f 0000 0020 bdf2 e33f
00000270: 0000 00a0 eef2 aabf 0000 0000 0000 0000
00000280: 0000 0080 c572 c13f 0000 0020 d9c5 e23f
00000290: 0000 0080 b976 adbf 0000 0000 0000 0000
000002a0: 0000 0080 f903 3b40 0000 0040 cd3e 2940
000002b0: 0000 00e0 404a 1240 0000 00a0 3dea 2040
000002c0: 0000 00a0 5d55 1440 0000 0000 a9cb 0d40
000002d0: 0000 0000 20d9 1440 0000 00e0 195e 1140
000002e0: 0000 0060 b2b5 0340 0000 00c0 118d 1d40
000002f0: 0000 0020 a1bd 0f40 0000 00c0 2487 0a40
00000300: 0000 0020 a3a4 2040 0000 0040 55fe 1140
00000310: 0000 00a0 89f5 1140 0000 0020 a818 e33f
00000320: 0000 00e0 abe1 ea3f 0000 00c0 457a 7c3e
00000330: 0000 0000 0000 0000 0000 0020 d3a4 e13f
00000340: 0000 0060 e5e7 e93f 0000 0040 a4fb 8abf
00000350: 0000 0000 0000 0000 0000 00c0 c2bb e03f
00000360: 0000 00a0 a126 e83f 0000 0080 a04e 92bf
00000370: 0000 0000 0000 0000 0000 0020 8066 e03f
00000380: 0000 00c0 8aa0 e63f 0000 0000 b1ed 96bf
00000390: 0000 0000 0000 0000 0000 0000 e719 e03f
000003a0: 0000 0020 c94c e53f 0000 0000 fdf9 9abf
000003b0: 0000 0000 0000 0000 0000 00a0 fdba e13f
000003c0: 0000 0060 b856 e53f 0000 0020 57c2 373f
000003d0: 0000 0000 0000 0000 0000 0020 087c e13f
000003e0: 0000 00e0 8656 e33f 0000 0080 311a 7fbf
000003f0: 0000 0000 0000 0000 0000 0080 0c61 e13f
00000400: 0000 0080 b024 e23f 0000 00c0 43e2 92bf
00000410: 0000 0000 0000 0000 0000 00a0 a638 e13f
00000420: 0000 00a0 b103 e13f 0000 0020 e2d0 9cbf
00000430: 0000 0000 0000 0000 0000 0040 598f e23f
00000440: 0000 0000 fa3c e53f 0000 0080 d823 70bf
00000450: 0000 0000 0000 0000 0000 0040 d469 e23f
00000460: 0000 0060 9f2f e33f 0000 0080 0f2a 89bf
00000470: 0000 0000 0000 0000 0000 00e0 0117 e23f
00000480: 0000 00e0 54ff e13f 0000 00a0 998c 98bf
00000490: 0000 0000 0000 0000 0000 0080 2ca8 e13f
000004a0: 0000 00a0 410d e13f 0000 0080 60de a0bf
000004b0: 0000 0000 0000 0000 0000 0020 d14f e33f
000004c0: 0000 00a0 7f9d e53f 0000 00e0 74e2 86bf
000004d0: 0000 0000 0000 0000 0000 00e0 786f e33f
000004e0: 0000 0040 f992 e33f 0000 0000 0050 95bf
000004f0: 0000 0000 0000 0000 0000 00c0 2350 e33f
00000500: 0000 0000 ab3a e23f 0000 0020 5727 9fbf
00000510: 0000 0000 0000 0000 0000 0060 081b e33f
00000520: 0000 0080 a615 e13f 0000 0000 d377 a3bf
00000530: 0000 0000 0000 0000 0000 00c0 e000 e43f
00000540: 0000 00a0 cd61 e63f 0000 00e0 edaa 94bf
00000550: 0000 0000 0000 0000 0000 0040 843d e43f
00000560: 0000 0040 a4dc e43f 0000 00a0 060d 9fbf
00000570: 0000 0000 0000 0000 0000 0020 df55 e43f
00000580: 0000 00c0 37c9 e33f 0000 00a0 8680 a2bf
00000590: 0000 0000 0000 0000 0000 0040 2067 e43f
000005a0: 0000 00c0 65c3 e23f 0000 0080 3ccb a4bf
000005b0: 0000 0000 0000 0000 0000 0080 c0c1 3d40
000005c0: 0000 00e0 5321 2e40 0000 00c0 79ff d73f
000005d0: 0000 0060 a2ff 2340 0000 00e0 424c 2240
000005e0: 0000 0040 d39b 0740 0000 0000 fc11 1940
000005f0: 0000 00a0 a7de 2c40 0000 00c0 433d 2240
00000600: 0000 0020 814f 1340 0000 0020 fb07 2340
00000610: 0000 00e0 783d 1440 0000 00c0 0189 1240
00000620: 0000 00c0 0936 1140 0000 0000 dbb9 0140
00000630: 0000 0000 0000 2640 0000 00e0 108d cb3f
00000640: 0000 0080 c878 eb3f 0000 0020 c1f6 943e
00000650: 0000 0000 0000 0000 0000 0080 eeb4 d03f
00000660: 0000 00c0 7811 ea3f 0000 0080 cbd9 94bf
00000670: 0000 0000 0000 0000 0000 0040 f766 d23f
00000680: 0000 0020 5bf1 e73f 0000 00a0 c6e5 9bbf
00000690: 0000 0000 0000 0000 0000 0000 bdd9 d23f
000006a0: 0000 0080 401f e63f 0000 0040 2dce a0bf
000006b0: 0000 0000 0000 0000 0000 00e0 fa73 d33f
000006c0: 0000 0060 799e e43f 0000 00e0 0291 a3bf
000006d0: 0000 0000 0000 0000 0000 00c0 e3d3 cf3f
000006e0: 0000 0080 bd6e e53f 0000 00e0 6d16 8abf
000006f0: 0000 0000 0000 0000 0000 00c0 7369 d03f
00000700: 0000 0020 e733 e33f 0000 0000 db0f 9bbf
00000710: 0000 0000 0000 0000 0000 0020 b993 d03f
00000720: 0000 0040 9cd4 e13f 0000 0040 d9bf a3bf
00000730: 0000 0000 0000 0000 0000 00a0 14a4 d03f
00000740: 0000 0000 f797 e03f 0000 00c0 f061 a8bf
00000750: 0000 0000 0000 0000 0000 00a0 9831 cc3f
00000760: 0000 0040 256a e53f 0000 00c0 cb06 8cbf
00000770: 0000 0000 0000 0000 0000 0020 43ba cc3f
00000780: 0000 0040 7201 e33f 0000 0020 e980 99bf
00000790: 0000 0000 0000 0000 0000 00c0 befa cc3f
000007a0: 0000 00c0 2775 e13f 0000 0000 d68f a2bf
000007b0: 0000 0000 0000 0000 0000 0000 7710 cd3f
000007c0: 0000 0040 6a19 e03f 0000 0020 ee0f a7bf
000007d0: 0000 0000 0000 0000 0000 0000 3dc0 c83f
000007e0: 0000 00a0 67e4 e53f 0000 00a0 a74a 92bf
000007f0: 0000 0000 0000 0000 0000 0060 0b55 c83f
